weights/chào_mer_quea.onnx (onnx, 205430 bytes, 9 tensors)

layer1.weight f4 [32, 1536]
0	0xbbc55c70	-0.0060229823
1	0x3b6e8de9	0.0036400503
2	0x3bdf34fb	0.0068117357
3	0xbcbae1c7	-0.022812737
4	0xbb51dbc1	-0.0032021853
5	0xbcbdd177	-0.02317117
6	0xbc4c71e3	-0.012478325
7	0x3c2cc2f1	0.0105445245
8	0x3b94234b	0.004520809
9	0x3c34040f	0.010987296
10	0x3bed887b	0.0072489358
11	0xbc903f2d	-0.01760825
12	0xbc5c5563	-0.013448092
13	0x3c99a593	0.01875571
14	0xbc7ec173	-0.015549052
15	0xbbac5767	-0.0052594426
16	0x3b8da9fc	0.004323242
17	0x3cb54881	0.0221293
18	0xbca5dc42	-0.020246629
19	0xbc459acd	-0.012060833
20	0x3c0363a9	0.008019366
21	0x3c8ecfbd	0.017433042
22	0x3cd8c1b7	0.026459558
23	0x3b8fc86c	0.004387906
24	0xbcd5900b	-0.026069662
25	0x3b88dda7	0.0041768136
26	0xbc6d4da1	-0.01448384
27	0xbcbddb04	-0.023175724
28	0xbc30bc0c	-0.010787021
29	0x3ca1e72d	0.019763554
30	0xbb853915	-0.0040656426
31	0xbcb9a540	-0.022661805
32	0x3cb8932d	0.022531116
33	0x36de48e5	6.6246016e-06
34	0x3c0cd711	0.008596198
35	0xbc169dab	-0.009192864
36	0x3c6f27ef	0.014596923
37	0x3b73938d	0.0037166805
38	0xbc9cd577	-0.019144757
39	0x3b5678cd	0.0032725811
40	0xbafc9ddf	-0.0019273123
41	0x3a85302f	0.0010161455
42	0xbb85a8c6	-0.0040789573
43	0xba0085ab	-0.00049027306
44	0x3c66c1ac	0.014084261
45	0xbc5cd0cc	-0.013477515
46	0xbca4d1ba	-0.020119537
47	0xbd0b8d29	-0.034070168
48	0x3c42b61f	0.011884241
49	0xbbd8eb11	-0.006619819
50	0x3c8aedc9	0.016959088
51	0xbc812011	-0.01576236
52	0xbc6750c4	-0.014118377
53	0xbc08695b	-0.0083259
54	0x3c2e9ce0	0.010657519
55	0xbbe2d65c	-0.0069225263
56	0x3bbcda50	0.0057633296
57	0xbcc898e4	-0.024486966
58	0xbcacd510	-0.02109769
59	0xbc012af9	-0.007883781
60	0xbcacc01f	-0.021087704
61	0x3c81ac7e	0.015829321
62	0x3c3c1bcc	0.011481237
63	0x3bb8430c	0.005623227
64	0x3bc2c403	0.0059437766
65	0x3c87b3ed	0.016565287
66	0x3c6cee79	0.014461153
67	0xbc94b2bf	-0.018151639
68	0xbc531b9b	-0.012885
69	0x3a331bb9	0.0006832439
70	0x3bc52168	0.006015945
71	0xba274cd5	-0.00063819933
72	0xbc7dc5f9	-0.015489095
73	0x3c3ce8c4	0.011530105
74	0xbcb596a8	-0.022166565
75	0x3cb905c4	0.022585757
76	0xbc7be3b7	-0.015374116
77	0xbc0bd833	-0.008535433
78	0xbc602f98	-0.013683222
79	0x3cc8f209	0.024529474
80	0xbc90bb81	-0.017667534
81	0x3c07dfcb	0.0082931025
82	0xbc7241ef	-0.014786228
83	0x3cdd34b8	0.027002677
84	0xbb1e8ac7	-0.0024191604
85	0x3c597be8	0.01327417
86	0xbc434820	-0.011919051
87	0xbcc4acb4	-0.024008133
88	0x3c5a3667	0.013318635
89	0xbca17913	-0.019711053
90	0x3ca02dfd	0.019553179
91	0xbc8adbc0	-0.016950488
92	0x3cb23373	0.021753049
93	0x3b3a725b	0.0028449509
94	0xbcf6c88d	-0.030124927
95	0xbc19fe67	-0.009399033
96	0x3cef4428	0.029207304
97	0xbaf417d7	-0.0018622827
98	0xbc09fb17	-0.008421681
99	0xbcd2356f	-0.025660245
100	0x3c34201c	0.010993984
101	0x3ca0580b	0.019573232
102	0x3c891f0b	0.016738435
103	0x3ae06f2f	0.0017122979
104	0x39f4badb	0.00046678525
105	0x3cb4eb20	0.022084773
106	0x3b9ccf74	0.0047854725
107	0x3c951998	0.01820068
108	0x3be875df	0.0070941295
109	0xbcabae01	-0.020956995
110	0xbcaefe11	-0.021361383
111	0x3c66932c	0.014073174
112	0x3c0cf83d	0.0086041065
113	0x3c950b33	0.018193817
114	0xbcdc8857	-0.02692048
115	0x3bbae0ad	0.005703053
116	0x3c9b138b	0.018930217
117	0xbc58fc83	-0.013243797
118	0x3b3aaab1	0.0028483088
119	0xbcd1ee09	-0.0256262
120	0x3c8f9193	0.01752547
121	0x3c204bf1	0.009783731
122	0x3c351025	0.011051212
123	0x3c7d5d98	0.015464209
124	0xbcd29d93	-0.025709903
125	0xbcd51b4c	-0.026013993
126	0xbc7848eb	-0.015154104
127	0x3b4c5d75	0.0031183634
128	0xbb94bf34	-0.0045393948
129	0xbcadb863	-0.021206087
130	0xbc5f0313	-0.013611573
131	0x3c58885b	0.013216103
132	0x3c80662a	0.015673716
133	0xbc8ea8df	-0.017414508
134	0x3baa33b1	0.0051941504
135	0xbc7028b8	-0.014658146
136	0xbc92dbf3	-0.017927146
137	0xbcb36fcb	-0.021903893
138	0xbc947d7d	-0.018126244
139	0x3c0c7387	0.008572466
140	0xbc58df03	-0.013236764
141	0xbb32dc19	-0.0027291833
142	0x3c7ced4f	0.015437438
143	0xba35680f	-0.0006920108
144	0x3c1a79c1	0.009428442
145	0xbc27a083	-0.01023114
146	0xb8500e07	-4.960413e-05
147	0x3c6cc521	0.014451296
148	0xbc6c1934	-0.014410306
149	0xbb973447	-0.0046143862
150	0xba59a5f4	-0.0008302622
151	0x3ae59c49	0.001751789
152	0xbcb99d35	-0.02265797
153	0xbc728ae5	-0.014803623
154	0x3bb2ef98	0.0054606907
155	0xbc829b99	-0.015943335
156	0x3c02a9b3	0.00797503
157	0xbca2bc58	-0.0198652
158	0x3c182379	0.009285801
159	0xbcabbd91	-0.020964416
160	0x3c1bc599	0.00950756
161	0x3cbdc1c9	0.023163693
162	0x3c89ec8d	0.016836429
163	0x3ba1820a	0.004928832
164	0xbbdbac95	-0.006703923
165	0xbc676c1b	-0.014124895
166	0xbc863eac	-0.016387306
167	0x3c93d614	0.018046416
168	0xbbffdf6c	-0.0078086164
169	0x3c11eba0	0.008906275
170	0x39d1918f	0.00039972036
171	0xbb2bebd9	-0.0026233105
172	0x3c863ccb	0.01638641
173	0x3c1a10a7	0.009403384
174	0xbc855a6a	-0.016278464
175	0x3ccc36a3	0.024928397
176	0x3c588fb1	0.013217852
177	0xbb828e55	-0.0039842525
178	0x3be77c2d	0.0070643635
179	0xbc2d33f8	-0.010571472
180	0xbb4c8638	-0.003120793
181	0xbd0e3124	-0.034714833
182	0xbc5e5083	-0.013569
183	0x3a114567	0.0005541653
184	0xbb711558	-0.0036786404
185	0x3b623a7d	0.0034519725
186	0x3d0b25d0	0.033971608
187	0xbc3111a8	-0.010807432
188	0xbccb77e7	-0.024837447
189	0xbc904ca1	-0.017614665
190	0x3c39a811	0.011331574
191	0x3c954f6e	0.018226352
192	0xbbb9ba95	-0.0056679943
193	0xbc8423e9	-0.016130405
194	0x3bf6fdb1	0.0075375666
195	0xbd1d6680	-0.03842783
196	0x3b33100d	0.00273228
197	0xbcbf57d9	-0.023357319
198	0xbbf77a25	-0.0075524026
199	0xbce91ff8	-0.028457627
200	0x3b5f3feb	0.0034065198
201	0xbcb962cf	-0.022630123
202	0xbcc8a73b	-0.024493804
203	0xbb8d8dd3	-0.0043198853
204	0x3b227826	0.0024790852
205	0xbc6743b4	-0.014115263
206	0x3b4a7539	0.0030892624
207	0xbd0e02bd	-0.03467058
208	0xbc938bf9	-0.01801108
209	0x3c83189c	0.016002946
210	0xbc89a2cb	-0.016801259
211	0xbc740165	-0.014892911
212	0x3cada548	0.021196976
213	0x3ca9a18f	0.02070692
214	0x3c2f9fe0	0.0107192695
215	0xbc7afcd4	-0.015319068
216	0xbbcbaee1	-0.0062159155
217	0x3c827740	0.015926003
218	0x3cce6060	0.02519244
219	0x3b9cf815	0.004790316
220	0xbcc5858c	-0.024111532
221	0x3b788d09	0.003792586
222	0x3ccc25e7	0.024920417
223	0xbbbbd2f4	-0.0057319347
224	0x3cdab8e7	0.026699496
225	0x3908fd83	0.00013064411
226	0xbb818be3	-0.0039534434
227	0xbbf6ac89	-0.007527892
228	0x3c6ecd8d	0.014575374
229	0xbcc0cf89	-0.02353646
230	0x3c5e9e27	0.013587511
231	0xbce866f7	-0.02836941
232	0x3cb57a44	0.022153027
233	0xbbd8679b	-0.0066041476
234	0x3c7c6898	0.0154057965
235	0x3c860d98	0.016363904
236	0x3b31d334	0.0027133944
237	0x3b988349	0.0046543223
238	0xbc916d5b	-0.01775234
239	0x3a8d79f0	0.0010793786
240	0xbbe1c1e4	-0.0068895686
241	0xbc77e6ac	-0.01513068
242	0xbb7c4831	-0.0038495178
243	0xbc602d79	-0.0136827165
244	0x3c1dd8cd	0.009634209
245	0x3cb29e31	0.021803947
246	0x3c64fb3b	0.013975914
247	0x3cc6b5f8	0.024256691
248	0xbc6bf7d7	-0.014402351
249	0xbcae08bc	-0.0212444
250	0xbc4e4b80	-0.012591243
251	0xbc712987	-0.014719374
252	0xbc20193c	-0.009771641
253	0xbc7f6e21	-0.015590222
254	0xbc00b45b	-0.0078555
255	0xbc2db3d3	-0.0106019555

layer1.bias f4 [32]
0	0x3cae7ae3	0.021298831
1	0x3bb85079	0.0056248275
2	0x3ca34c80	0.019933939
3	0xbca1c437	-0.019746883
4	0xbc9f66c4	-0.019458182
5	0x3cf2513c	0.029579751
6	0x3a9be8a7	0.0011894897
7	0x3c57eac4	0.013178531
8	0xbc07a467	-0.008278943
9	0x3a67116f	0.00088145485
10	0x3ca29607	0.01984693
11	0xbcb3ce55	-0.021948973
12	0x3c5f4943	0.013628307
13	0x3c702687	0.014657623
14	0x3c06cb4f	0.0082271835
15	0x3c70ceb7	0.014697722
16	0xbc5c8f68	-0.013461925
17	0xbb9747b9	-0.0046167043
18	0x3ca004b0	0.019533485
19	0xbc82538c	-0.015908979
20	0xbbc96199	-0.0061456678
21	0xbc807758	-0.015681908
22	0xbbcc1388	-0.0062279142
23	0x3b1a34a0	0.0023529902
24	0xbb81cd4f	-0.0039612423
25	0xbbce6a93	-0.0062993257
26	0x3ce88a44	0.028386243
27	0xbcb3e871	-0.021961423
28	0x3c4872d0	0.012234405
29	0x3c80c6eb	0.015719851
30	0xbc9c7e57	-0.019103212
31	0x3b1ce570	0.0023940466

layernorm1.weight f4 [32]
0	0x3f7ef40f	0.99591154
1	0x3f78f6d3	0.97251624
2	0x3f856a75	1.0423113
3	0x3f7fbd50	0.9989824
4	0x3f7fda19	0.99942166
5	0x3f86ae7a	1.0521996
6	0x3f7f6a9d	0.99772054
7	0x3f7fd1c5	0.9992946
8	0x3f813131	1.0093137
9	0x3f8195eb	1.0123876
10	0x3f832eb4	1.0248628
11	0x3f82dc7f	1.022354
12	0x3f7eb707	0.9949803
13	0x3f7874af	0.97053045
14	0x3f744633	0.95419616
15	0x3f7aec37	0.98016685
16	0x3f7f7c2f	0.99798864
17	0x3f81c341	1.0137712
18	0x3f75b239	0.9597507
19	0x3f801b0b	1.0008253
20	0x3f847980	1.0349579
21	0x3f7fb8a3	0.9989111
22	0x3f7c57ec	0.9857166
23	0x3f7f641d	0.99762136
24	0x3f7fc14b	0.99904317
25	0x3f7f7443	0.99786776
26	0x3f82d007	1.0219735
27	0x3f7fcdc4	0.9992335
28	0x3f7f5584	0.9973986
29	0x3f7fc014	0.9990246
30	0x3f7fbd87	0.9989857
31	0x3f7fdd25	0.99946815

layernorm1.bias f4 [32]
0	0xbade2d45	-0.0016950747
1	0x3c94dd77	0.018172009
2	0x3d0c6e4c	0.034284875
3	0xbada0265	-0.0016632794
4	0xba8ca78f	-0.0010731089
5	0x3c8307a8	0.015994862
6	0xbc2eefdf	-0.010677307
7	0xba94f475	-0.0011364358
8	0x3c4553eb	0.012043933
9	0x3c8a4445	0.016878257
10	0x3c8756b7	0.016520841
11	0x3ccdf9d4	0.025143541
12	0x3c9e3a49	0.019314902
13	0x3cb42f0b	0.021995088
14	0xba9be7e6	-0.0011894673
15	0x3c3a4daf	0.01137106
16	0xb820b783	-3.831788e-05
17	0x3c13ca0e	0.009020342
18	0x3bfd3807	0.0077276262
19	0x3bda3495	0.0066591003
20	0x3c78c9cd	0.015184832
21	0xbb0fb9f9	-0.0021930917
22	0x3c02ff8c	0.007995497
23	0xbbebda4f	-0.0071976553
24	0xbb0acf5c	-0.0021180725
25	0xba08213d	-0.0005192941
26	0x3ca44a61	0.020054998
27	0xbb108ac5	-0.002205537
28	0xbc0eba39	-0.008711391
29	0xbb0fe7c9	-0.0021958223
30	0xbae26cbf	-0.001727484
31	0xba5433ab	-0.00080948573

blocks.0.fcn_layer.weight f4 [32, 32]
0	0x3ddec3cf	0.10877191
1	0x3d2e3b33	0.042536926
2	0x3cba4d94	0.02274207
3	0x3e2c29e4	0.16812855
4	0x3db6ac3c	0.0891957
5	0x3de63f88	0.112425864
6	0x3d32e089	0.043671165
7	0x3e10da07	0.14145671
8	0xbd82147d	-0.06351564
9	0xbd8fc707	-0.07020383
10	0x3d94c513	0.072641514
11	0xbd3096ec	-0.04311268
12	0x3d9c72e0	0.07639098
13	0xbd4be6e0	-0.049780726
14	0xbc613350	-0.013745144
15	0xbe14bd75	-0.14525397
16	0xbd9998bd	-0.07499836
17	0xbdd1bda0	-0.10241246
18	0x3d61bae8	0.05510989
19	0x3d59ba7f	0.053156372
20	0xbe35e254	-0.17762119
21	0x3df7f714	0.12107673
22	0x3dc0c900	0.09413338
23	0xbdbc0da4	-0.09182289
24	0x3e079634	0.13240892
25	0x3b8609fd	0.004090546
26	0x3dde2e4c	0.10848674
27	0xbe13916b	-0.14410941
28	0x3dc89441	0.09793902
29	0xbe17efaf	-0.14837526
30	0x3e232be8	0.15934718
31	0xbe14265c	-0.14467758
32	0xbdd77265	-0.10519866
33	0xbca906cd	-0.020633126
34	0xbd0aaa4c	-0.033853814
35	0x3e085de3	0.13317065
36	0x3cfc793c	0.030819528
37	0xbc63918c	-0.013889682
38	0x3dcb42c1	0.09924842
39	0x3e27d881	0.16391183
40	0xbdcb15ab	-0.09916242
41	0x3c0b63b3	0.008507657
42	0xbe193be5	-0.14964254
43	0x3d6251bc	0.05525373
44	0x3d36bc91	0.044613425
45	0x3df0085b	0.11720344
46	0x3dc55a2d	0.0963634
47	0x3d97301b	0.07382222
48	0x3dcd642c	0.10028872
49	0xbdd195b1	-0.102336295
50	0x3e20f360	0.1571784
51	0xbddc4f84	-0.10757354
52	0xbd1444d1	-0.03619844
53	0x3e03fc9c	0.12889332
54	0xbbaaf2ef	-0.005216948
55	0xbe2bc9a4	-0.16776139
56	0x3da2263d	0.079174496
57	0x3d252ad5	0.04032405
58	0xbe07ba6f	-0.13254713
59	0x3e319335	0.17341311
60	0x3aadd291	0.0013261606
61	0x3e2165fc	0.1576156
62	0x3dd1f9eb	0.10252746
63	0x3cab1847	0.0208856
64	0x3ddcf687	0.10789209
65	0xbcadfd21	-0.021238865
66	0x3deb8511	0.1149999
67	0xbe0c5aed	-0.1370656
68	0x3de455ef	0.11149203
69	0xbd01c353	-0.031680416
70	0xbccf3c53	-0.02529732
71	0x3dd30a63	0.103047155
72	0x3dbc2ee0	0.09188628
73	0xbe13ace9	-0.14421429
74	0xbd85f336	-0.065405294
75	0x3e2e14cd	0.17000122
76	0xbe1bd084	-0.15216261
77	0xbda16df0	-0.07882297
78	0x3d9be92a	0.07612832
79	0x3e181bfb	0.14854424
80	0x3dc53d37	0.096308164
81	0x3d82b9f5	0.06383125
82	0xbd69217b	-0.056916695
83	0x3d83ecb6	0.064416334
84	0xbe22da0f	-0.15903495
85	0x3dc579b1	0.096423514
86	0x39ff6e08	0.0004871937
87	0xbd9c5f34	-0.07635346
88	0xbb6f662c	-0.0036529405
89	0xbdde108f	-0.10843002
90	0x3cf71547	0.030161513
91	0xbdaf391d	-0.08555815
92	0x3e31a545	0.17348202
93	0x3dc2002c	0.09472689
94	0xbcfd443b	-0.030916324
95	0xbe088059	-0.13330211
96	0xbc452cc9	-0.012034603
97	0x3da3912d	0.079866745
98	0xbd648ae0	-0.055796504
99	0x391c5f15	0.0001491274
100	0x3e32bb95	0.1745437
101	0x3e1eb0b3	0.15497093
102	0xbd17c88f	-0.037056502
103	0xbe04c48e	-0.12965605
104	0x3e0c9e47	0.13732253
105	0xbd0c70db	-0.034287315
106	0x3deca554	0.11554971
107	0xbd8c924b	-0.06863841
108	0xbcdac51d	-0.026705319
109	0x3d547953	0.051873516
110	0xbb300688	-0.0026859362
111	0xbe1e8e41	-0.15483953
112	0x3de49880	0.111618996
113	0x3d86355b	0.065531455
114	0x3c53c4b3	0.012925315
115	0x3dd06c51	0.1017691
116	0x3e07b0c5	0.13251026
117	0xbdaa29e7	-0.083087735
118	0x3cc54108	0.02407886
119	0x3d1891e1	0.037248496
120	0xbd14e6c4	-0.036352888
121	0xbe245bb7	-0.16050611
122	0xbd0a13e3	-0.03371037
123	0xbdde7570	-0.10862243
124	0xbdd19ecd	-0.10235367
125	0xbe01f4a3	-0.12690978
126	0x3c027017	0.007961295
127	0x3b116bb3	0.0022189438
128	0xbdbfc365	-0.093634404
129	0xbe0f2382	-0.13978389
130	0xbdb8e4a3	-0.09027984
131	0xbd22e30f	-0.03976732
132	0x3d2cc47f	0.04217958
133	0x3e4601e5	0.1933666
134	0x3d54b4c7	0.051930215
135	0xbe2022cb	-0.15638272
136	0xbd9c2841	-0.07624865
137	0xbd3588c1	-0.04431987
138	0x3e16e9c4	0.14737612
139	0xbd7d0b30	-0.061778247
140	0xbd0b7d21	-0.03405488
141	0x3e10d2b7	0.14142881
142	0x3e368157	0.17822777
143	0xbe099771	-0.13436677
144	0x3e2e8518	0.17042959
145	0x3e1e1eeb	0.15441482
146	0xbd2102e9	-0.039309416
147	0xbe07dbac	-0.13267392
148	0x3dafb8fc	0.08580205
149	0xbd7807c1	-0.06055427
150	0x3d81a43d	0.06330154
151	0x3e23595d	0.15952058
152	0x3d917ab3	0.07103481
153	0x3e063a81	0.13108255
154	0xbd48903f	-0.04896569
155	0xbdadbb93	-0.084830426
156	0xbd05f557	-0.032704677
157	0xbe1085bd	-0.14113517
158	0xbe13273c	-0.14370435
159	0x3dda34bc	0.106545895
160	0xbe30e37f	-0.17274283
161	0xbe329ca4	-0.17442566
162	0xbdef0e67	-0.11672669
163	0xbd94cef1	-0.072660334
164	0xbc23d8eb	-0.010000448
165	0x3d90849a	0.07056542
166	0x3dbaf661	0.09129024
167	0x3d8618b1	0.06547678
168	0xbdfb9e68	-0.12286073
169	0x3d2cf893	0.042229246
170	0xbe43ed6d	-0.1913354
171	0xbbbf8ae3	-0.005845414
172	0xbe0ad8bb	-0.13559239
173	0x3d759b18	0.059962362
174	0x3d462c55	0.048382122
175	0xbd29404b	-0.04132108
176	0x3d958f08	0.07302672
177	0x3d83fd55	0.064448036
178	0x3d784f14	0.06062229
179	0x3dff6465	0.124703206
180	0x3d8c2f6e	0.06844984
181	0xbe12a2c9	-0.1431991
182	0xbd8ca259	-0.06866903
183	0x3d1a67c7	0.037696626
184	0xbdfc5fe1	-0.12322975
185	0x3da71dd9	0.0815999
186	0x3da696e3	0.08134248
187	0xbe2b390c	-0.1672098
188	0xbd8fd45d	-0.07022927
189	0xbcf317e0	-0.02967447
190	0x3d9e4274	0.07727519
191	0xbb52df45	-0.0032176536
192	0x3d23b6b1	0.03996915
193	0x3cc9d948	0.02463974
194	0xbe0b4f3d	-0.13604446
195	0xbdb8252d	-0.08991466
196	0xbd4d332f	-0.05009764
197	0x3e1c490b	0.15262239
198	0x3d09ffe9	0.03369132
199	0xbe2aa19b	-0.1666321
200	0xbd9e5281	-0.0773058
201	0xbe0859b5	-0.1331547
202	0xbd70af73	-0.05876107
203	0x3ddc43a7	0.10755091
204	0xbd33a8e3	-0.043862235
205	0x3dbb2d65	0.09139518
206	0xbd3a31b8	-0.04545757
207	0xbdcfd348	-0.101477206
208	0xbb4c9a2c	-0.0031219823
209	0x3dbf5a83	0.093434356
210	0xbd160fb7	-0.03663608
211	0x3daeceeb	0.0853556
212	0x3d8fb55b	0.07017013
213	0xbdbe5fe0	-0.092956305
214	0xbe319873	-0.17343311
215	0xbe083849	-0.13302721
216	0x3de7521d	0.11294959
217	0x3ddc5218	0.10757846
218	0xbe29ca75	-0.16581137
219	0xbd362b88	-0.04447511
220	0xbe1f5a59	-0.15561809
221	0xbd94d27c	-0.07266709
222	0x3e33cb84	0.17558104
223	0x3e20d343	0.1570559
224	0x3e14dbfe	0.14537045
225	0xbd031047	-0.031997945
226	0xbd06c8e8	-0.032906443
227	0x3dd811d5	0.10550276
228	0xbce5b137	-0.028038604
229	0xbdcc32a0	-0.099705935
230	0x3db5c241	0.088749416
231	0xbe33d52d	-0.17561789
232	0xbe159bc0	-0.14610195
233	0x3d7d21a0	0.061799645
234	0x3e24e8e6	0.16104469
235	0x3d86019e	0.06543277
236	0x3e17e537	0.14833532
237	0x3df540d0	0.11975253
238	0x3d87cf65	0.06631354
239	0xbe040399	-0.12891997
240	0xbd868617	-0.06568544
241	0xbe2315c3	-0.1592627
242	0x3db643ff	0.08899688
243	0xbe16520f	-0.1467974
244	0x3e0a5323	0.13508277
245	0x3de86fa4	0.11349419
246	0x3c668d5d	0.01407179
247	0xbd568a11	-0.052377764
248	0xbc8dc2a9	-0.017304735
249	0x3dd82a73	0.105549715
250	0x3ca9f920	0.020748675
251	0x3dd10677	0.10206311
252	0x3e02852e	0.12746117
253	0x3d262b0b	0.040568393
254	0x3e25f6ec	0.16207474
255	0xbde84a21	-0.11342264

blocks.0.fcn_layer.bias f4 [32]
0	0x3e0465a1	0.12929393
1	0xbd3b40cd	-0.045716096
2	0x3d8a1199	0.06741638
3	0x3bd6c535	0.0065542706
4	0xbdc18cfb	-0.09450718
5	0xbdb71e31	-0.089413054
6	0x3c77cb41	0.015124143
7	0x3d869c75	0.065728106
8	0x3d8976d9	0.067121215
9	0xbcd7fa2c	-0.026364408
10	0x3df680bd	0.12036274
11	0x3d02c5cf	0.031926926
12	0x3ded0d3c	0.1157479
13	0xbe2b5e48	-0.16735184
14	0xbd8e905f	-0.0696113
15	0xbdeaee91	-0.11471284
16	0x3e0a8e20	0.13530779
17	0x3d41cf1f	0.047316667
18	0xbd1f00e4	-0.03881921
19	0x3e09e4c3	0.13466172
20	0x3d97dd72	0.07415284
21	0x3e352868	0.17691195
22	0xbbac06f7	-0.0052498537
23	0x3df6e945	0.120562114
24	0x3d4e6f08	0.050398856
25	0x3be21838	0.0068998598
26	0xbc9f1a33	-0.019421672
27	0xbd9a1507	-0.07523542
28	0x3dc38694	0.09547153
29	0x3dd359b7	0.10319846
30	0xbe15eebf	-0.14641856
31	0x3e358601	0.177269

blocks.0.layer_norm.weight f4 [32]
0	0x3f9e30f0	1.2358685
1	0x3f800469	1.0001346
2	0x3f86e8ff	1.0539855
3	0x3f9ba33d	1.2159191
4	0x3fa23ead	1.2675377
5	0x3f7fb3f3	0.99883956
6	0x3f804efd	1.0024105
7	0x3fa8631d	1.3155247
8	0x3f801673	1.0006851
9	0x3f80bb60	1.0057182
10	0x3f8dc3f1	1.1075422
11	0x3f7fd393	0.9993221
12	0x3f896c06	1.0736091
13	0x3f7febc7	0.9996914
14	0x3f8a1229	1.0786792
15	0x3f89a6ba	1.0754006
16	0x3fa42221	1.2822915
17	0x3f876446	1.0577476
18	0x3f83315e	1.0249441
19	0x3f7ff21c	0.99978805
20	0x3f8011ec	1.0005469
21	0x3f7e16f4	0.99253774
22	0x3f7f7029	0.9978052
23	0x3f9ed5f8	1.2409048
24	0x3fa47dd3	1.2850899
25	0x3f8016f4	1.0007005
26	0x3f802971	1.0012647
27	0x3fa61ca1	1.2977487
28	0x3f824c1d	1.0179478
29	0x3f9ca613	1.2238182
30	0x3f81058b	1.0079817
31	0x3fa451b5	1.2837435

blocks.0.layer_norm.bias f4 [32]
0	0x3e80c722	0.25151926
1	0x3b9af6ad	0.004729113
2	0x3d08d48e	0.033405833
3	0x3e70782d	0.23483343
4	0x3e83599b	0.256543
5	0xbaef82b0	-0.0018273201
6	0x3b426c3b	0.0029666561
7	0x3e8dbc3f	0.27682683
8	0xbbcdd943	-0.006282003
9	0x3ba4ce39	0.0050294665
10	0x3d8967a8	0.06709224
11	0xbac2c845	-0.001486071
12	0x3d93ef86	0.0722342
13	0x3b14dc4a	0.002271431
14	0x3d252fa9	0.040328655
15	0x3d1bbb48	0.038020402
16	0x3e8771f9	0.26454142
17	0x3cc16d67	0.023611737
18	0x3d0432e3	0.03227509
19	0xbb901e9e	-0.004398181
20	0x3950bd45	0.00019906934
21	0xbcb125c5	-0.021624455
22	0xbb372b53	-0.0027949407
23	0x3e7afabd	0.24509712
24	0x3e87ca2e	0.26521438
25	0x3abd6a45	0.0014451226
26	0xbb5d0268	-0.0033723358
27	0x3e884301	0.2661362
28	0x3ce5b1e7	0.028038932
29	0x3e759e59	0.23986186
30	0x3b843b2d	0.0040353746
31	0x3e861929	0.2619107

last_layer.weight f4 [1, 32]
0	0xbe9a10dc	-0.30090988
1	0x3c7aa26c	0.015297513
2	0x3e175fc5	0.14782627
3	0xbebaf611	-0.3651586
4	0xbeac35cd	-0.33634797
5	0x3e30e657	0.17275368
6	0xbd5cf70b	-0.053946536
7	0xbea839f3	-0.32856712
8	0x3dec0b6f	0.11525618
9	0x3de2ca31	0.11073721
10	0x3e786448	0.24257004
11	0x3db731fb	0.0894508
12	0x3e7a3237	0.24433218
13	0x3d00aba9	0.031413708
14	0x3dcee20f	0.10101711
15	0x3e7d06c5	0.24709614
16	0xbea404db	-0.32034954
17	0x3e37a635	0.17934497
18	0x3e2d1171	0.16901185
19	0x3d070059	0.032959316
20	0xbd1c0b43	-0.038096678
21	0xbd9af179	-0.075655885
22	0x3d5b4a1d	0.053537477
23	0xbeb33141	-0.34998515
24	0xbea78370	-0.32717466
25	0xbcc221df	-0.023697792
26	0x3c6a9f21	0.014320166
27	0xbeaec123	-0.34131727
28	0x3d3d8ceb	0.046276968
29	0xbeb067fc	-0.34454334
30	0x3e2eba3f	0.17063235
31	0xbeac9f69	-0.3371537
